Model: "digit_recognition_cnn"
+--------------------------------------------------------------------------+
| Layer (type)                    | Output Shape           |       Param # |
|---------------------------------+------------------------+---------------|
| conv1 (Conv2D)                  | (None, 28, 28, 32)     |           320 |
|---------------------------------+------------------------+---------------|
| pool1 (MaxPooling2D)            | (None, 14, 14, 32)     |             0 |
|---------------------------------+------------------------+---------------|
| conv2 (Conv2D)                  | (None, 14, 14, 64)     |        18,496 |
|---------------------------------+------------------------+---------------|
| pool2 (MaxPooling2D)            | (None, 7, 7, 64)       |             0 |
|---------------------------------+------------------------+---------------|
| flatten (Flatten)               | (None, 3136)           |             0 |
|---------------------------------+------------------------+---------------|
| dense1 (Dense)                  | (None, 128)            |       401,536 |
|---------------------------------+------------------------+---------------|
| dropout (Dropout)               | (None, 128)            |             0 |
|---------------------------------+------------------------+---------------|
| output (Dense)                  | (None, 10)             |         1,290 |
+--------------------------------------------------------------------------+
 Total params: 1,264,928 (4.83 MB)
 Trainable params: 421,642 (1.61 MB)
 Non-trainable params: 0 (0.00 B)
 Optimizer params: 843,286 (3.22 MB)
